…
AttributeError: module 'tensorflow' has no attribute 'models'
[2022-01-22 15:51:54,813: INFO: 02_transfer_leraning]: 
********************
[2022-01-22 15:51:54,813: INFO: 02_transfer_leraning]: >>>>> stage transfer learning started <<<<<
[2022-01-22 15:51:54,813: INFO: common]: yaml file: configs/config.yaml loaded successfully
[2022-01-22 15:51:55,333: INFO: 02_transfer_leraning]: loaded base model summary: 
 Model: "sequential"
_________________________________________________________________
 Layer (type)                Output Shape              Param #   
=================================================================
 flatten (Flatten)           (None, 784)               0         
                                                                 
 h1_layers (Dense)           (None, 300)               235500    
                                                                 
 leaky_re_lu (LeakyReLU)     (None, 300)               0         
                                                                 
 h2_layers (Dense)           (None, 100)               30100     
                                                                 
 leaky_re_lu_1 (LeakyReLU)   (None, 100)               0         
                                                                 
 outputlayer (Dense)         (None, 10)                1010      
                                                                 
=================================================================
Total params: 266,610
Trainable params: 266,610
Non-trainable params: 0
_________________________________________________________________

[2022-01-22 15:51:55,345: INFO: 02_transfer_leraning]: >>>>> stage transfer learning completed!<<<<<

[2022-01-22 15:53:43,168: INFO: 02_transfer_leraning]: 
…
AttributeError: 'Sequential' object has no attribute 'layer'
[2022-01-22 16:01:32,980: INFO: 02_transfer_leraning]: 
********************
[2022-01-22 16:01:32,980: INFO: 02_transfer_leraning]: >>>>> stage transfer learning started <<<<<
[2022-01-22 16:01:32,980: INFO: common]: yaml file: configs/config.yaml loaded successfully
[2022-01-22 16:01:33,406: INFO: 02_transfer_leraning]: loaded base model summary: 
 Model: "sequential"
_________________________________________________________________
 Layer (type)                Output Shape              Param #   
=================================================================
 flatten (Flatten)           (None, 784)               0         
                                                                 
 h1_layers (Dense)           (None, 300)               235500    
                                                                 
 leaky_re_lu (LeakyReLU)     (None, 300)               0         
                                                                 
 h2_layers (Dense)           (None, 100)               30100     
                                                                 
 leaky_re_lu_1 (LeakyReLU)   (None, 100)               0         
                                                                 
 outputlayer (Dense)         (None, 10)                1010      
                                                                 
=================================================================
Total params: 266,610
Trainable params: 266,610
Non-trainable params: 0
_________________________________________________________________

[2022-01-22 16:01:33,429: INFO: 02_transfer_leraning]: transfer model summary: 
Model: "sequential"
_________________________________________________________________
 Layer (type)                Output Shape              Param #   
=================================================================
 flatten (Flatten)           (None, 784)               0         
                                                                 
 h1_layers (Dense)           (None, 300)               235500    
                                                                 
 leaky_re_lu (LeakyReLU)     (None, 300)               0         
                                                                 
 h2_layers (Dense)           (None, 100)               30100     
                                                                 
 leaky_re_lu_1 (LeakyReLU)   (None, 100)               0         
                                                                 
 outputlayer (Dense)         (None, 2)                 202       
                                                                 
=================================================================
Total params: 265,802
Trainable params: 202
Non-trainable params: 265,600
_________________________________________________________________
 
[2022-01-22 16:01:54,126: INFO: common]: created directory at: artifacts/models
[2022-01-22 16:01:54,172: INFO: 02_transfer_leraning]: base model save dir artifacts/models/base_model.h5
…
AttributeError: 'Sequential' object has no attribute 'evalution'
[2022-01-22 16:02:15,617: INFO: 02_transfer_leraning]: 
********************
[2022-01-22 16:02:15,617: INFO: 02_transfer_leraning]: >>>>> stage transfer learning started <<<<<
[2022-01-22 16:02:15,618: INFO: common]: yaml file: configs/config.yaml loaded successfully
[2022-01-22 16:02:16,088: INFO: 02_transfer_leraning]: loaded base model summary: 
 Model: "sequential"
_________________________________________________________________
 Layer (type)                Output Shape              Param #   
=================================================================
 flatten (Flatten)           (None, 784)               0         
                                                                 
 h1_layers (Dense)           (None, 300)               235500    
                                                                 
 leaky_re_lu (LeakyReLU)     (None, 300)               0         
                                                                 
 h2_layers (Dense)           (None, 100)               30100     
                                                                 
 leaky_re_lu_1 (LeakyReLU)   (None, 100)               0         
                                                                 
 outputlayer (Dense)         (None, 2)                 202       
                                                                 
=================================================================
Total params: 265,802
Trainable params: 202
Non-trainable params: 265,600
_________________________________________________________________

[2022-01-22 16:02:16,111: INFO: 02_transfer_leraning]: transfer model summary: 
Model: "sequential"
_________________________________________________________________
 Layer (type)                Output Shape              Param #   
=================================================================
 flatten (Flatten)           (None, 784)               0         
                                                                 
 h1_layers (Dense)           (None, 300)               235500    
                                                                 
 leaky_re_lu (LeakyReLU)     (None, 300)               0         
                                                                 
 h2_layers (Dense)           (None, 100)               30100     
                                                                 
 leaky_re_lu_1 (LeakyReLU)   (None, 100)               0         
                                                                 
 outputlayer (Dense)         (None, 2)                 202       
                                                                 
=================================================================
Total params: 265,802
Trainable params: 202
Non-trainable params: 265,600
_________________________________________________________________
 
[2022-01-22 16:02:34,804: INFO: common]: created directory at: artifacts/models
[2022-01-22 16:02:34,823: INFO: 02_transfer_leraning]: base model save dir artifacts/models/base_model.h5
…
